customer_buy.pt (torch, 3563 bytes, 6 tensors)

weight f4 [10, 2]
0.26746172 0.6899325 -0.89054537 0.7650331 0.9741498 -0.7868939 -0.83898646 -0.902301
-0.8746586 -0.9065283 -0.60772765 -0.8019746 0.90681326 0.9137162 -0.33339095 -0.45916265
0.6652145 0.5547941 -0.65639037 -0.027798781
00000000: bef0 883e 6b9f 303f c8fa 63bf 36d9 433f
00000010: e261 793f e171 49bf d1c7 56bf 33fd 66bf
00000020: a0e9 5fbf 3d12 68bf 0a94 1bbf 354e 4dbf
00000030: ea24 683f 4ee9 693f 38b2 aabe 5e17 ebbe
00000040: 7f4b 2a3f fc06 0e3f 3309 28bf 45ba e3bc

bias f4 [10]
0.29600057 0.4197567 -0.36290738 0.6985966 0.082467504 0.16269523 -0.30192503 1.0873572
0.45718732 -0.121468045
00000000: 638d 973e 5aea d63e ffce b9be 3ad7 323f
00000010: b9e4 a83d 9499 263e eb95 9abe 852e 8b3f
00000020: 7514 ea3e 3dc4 f8bd

weight f4 [10, 10]
0.3590616 0.2779473 0.5288629 0.24880764 -0.5373122 -0.6881125 0.6700467 0.21488507
0.16044179 0.0057774484 0.22177383 0.49093103 0.80663705 -0.1800403 -0.5281963 -0.39549989
0.15303865 0.52353615 0.47653675 0.17096093 -0.24962717 -0.29390272 0.0007278323 -0.28265655
-0.00941807 -0.08086604 -0.24126358 -0.05078578 -0.079372615 0.24367562 -0.4918222 -0.10697126
-0.67750823 0.3207434 0.3905503 0.3209887 0.026173422 0.16992366 -0.12570363 -0.2919889
0.15636013 -0.30116093 0.5381904 -0.26015675 -0.3178742 -0.32517084 0.08476315 -0.37703764
-0.059978303 -0.4110278 0.63625383 0.3840557 0.4681754 0.09548445 -0.19401848 -0.52307117
0.5950666 -0.006978594 0.5660785 0.3150022 -0.088980876 -0.03739287 0.73196834 -0.37890637
0.07355729 -0.007936891 -0.19768327 0.16216987 0.25357443 0.027705055 -0.6133618 -0.5458028
-0.69908184 0.63469934 0.53095764 0.23211803 -0.2277919 0.5541406 -0.10540332 -0.712658
0.11441678 -0.2265665 0.028470337 0.248409 -0.1525032 -0.10951522 -0.15878652 -0.31117615
-0.027580172 -0.055006474 -0.18765946 -0.4776835 -0.3360747 0.5905999 0.513171 0.122852795
-0.115079366 0.283029 -0.16498294 -0.30425623
00000000: ecd6 b73e 1c4f 8e3e 8f63 073f 6ec7 7e3e
00000010: 4b8d 09bf 2428 30bf 2e88 2b3f d50a 5c3e
00000020: da4a 243e c050 bd3b ae18 633e 505b fb3e
00000030: c47f 4e3f 7c5c 38be df37 07bf f67e cabe
00000040: 2ab6 1c3e 7706 063f a0fc f33e 6210 2f3e
00000050: 449e 7fbe 6b7a 96be 00cc 3e3a 5cb8 90be
00000060: 404e 1abc 189d a5bd cd0d 77be c004 50bd
00000070: 1c8e a2bd 1a86 793e 1fd0 fbbe bf13 dbbd
00000080: 2e71 2dbf 7b38 a43e 35f6 c73e a258 a43e
00000090: a569 d63c 7800 2e3e 74b8 00be 927f 95be
000000a0: df1c 203e c431 9abe d9c6 093f 4433 85be
000000b0: 68c0 a2be cb7c a6be 4d98 ad3d 140b c1be
000000c0: cfab 75bd 3c72 d2be 88e1 223f f3a2 c43e
000000d0: b0b4 ef3e 5a8d c33d c8ac 46be fee7 05bf
000000e0: 4956 183f b1ac e4bb 85ea 103f f847 a13e
000000f0: 9b3b b6bd 4429 19bd 4762 3b3f 0400 c2be
00000100: 34a5 963d bc09 02bc 7c6d 4abe dc0f 263e
00000110: 82d4 813e b6f5 e23c 4705 1dbf bbb9 0bbf
00000120: 07f7 32bf a87b 223f d7ec 073f 59b0 6d3e
00000130: 4842 69be 29dc 0d3f b2dd d7bd c170 36bf
00000140: 5853 ea3d 0c01 68be a03a e93c ee5e 7e3e
00000150: cd29 1cbe 8449 e0bd ef98 22be 7b52 9fbe
00000160: d0ef e1bc 784e 61bd cd29 40be ef92 f4be
00000170: fc11 acbe 8e31 173f 2d5f 033f 3f9a fb3d
00000180: bbae ebbd 2de9 903e 4af1 28be 79c7 9bbe

bias f4 [10]
0.6579705 0.35354668 0.064692736 -0.06211433 0.08464324 0.50656885 0.0812774 -0.43789157
-0.24887812 -0.36549208
00000000: c170 283f 1204 b53e a07d 843d 986b 7ebd
00000010: 6f59 ad3d 7fae 013f c474 a63d 5333 e0be
00000020: e8d9 7ebe c721 bbbe

weight f4 [2, 10]
-0.61018705 -0.80462474 0.01905635 0.57568794 -0.21815106 -0.17793235 0.015964072 0.15744548
0.29460326 0.32493228 0.5463833 0.39160845 -0.29578513 -0.4451653 -0.02264541 0.70718133
0.23305179 -0.6410014 -0.21657212 -0.41939747
00000000: 3835 1cbf e3fb 4dbf 101c 9c3c 4960 133f
00000010: fe62 5fbe e633 36be 16c7 823c 6339 213e
00000020: 3dd6 963e 865d a63e c7df 0b3f e780 c83e
00000030: 2671 97be b5ec e3be de82 b9bc d609 353f
00000040: 21a5 6e3e ab18 24bf 15c5 5dbe 44bb d6be

bias f4 [2]
-0.6397445 0.4192835
00000000: 4cc6 23bf 54ac d63e
